…
.', 'A', '##ort', '##ic', '##no', '##des', '.', 'MAC', '##RO', '##SC', '##OP', '##IC', ':', 'A', '.', 'S', '##pec', '##ime', '##n', 'labelled', '"', 'W', '##hip', '##ple', 'specimen', ',', 'long', 'on', 'bi', '##le', 'duct', '"', 'consists', 'of', 'a', 'W', '##hip', '##ple', 'specimen', 'including', 'pan', '##cre', '##atic', 'neck', ',', 'body', 'and', 'un', '##c', '[SEP]']
len tmp_ids_to_tokens=209
len total text=835
len train_x =4
len train_y[i] =209
----------------print_annotated_medical_report
### Train
myModel(
  (bert): BertModel(
    (embeddings): BertEmbeddings(
      (word_embeddings): Embedding(28996, 768, padding_idx=0)
      (position_embeddings): Embedding(512, 768)
      (token_type_embeddings): Embedding(2, 768)
      (LayerNorm): LayerNorm((768,), eps=1e-12, elementwise_affine=True)
      (dropout): Dropout(p=0.1, inplace=False)
    )
    (encoder): BertEncoder(
      (layer): ModuleList(
        (0-11): 12 x BertLayer(
          (attention): BertAttention(
            (self): BertSelfAttention(
              (query): Linear(in_features=768, out_features=768, bias=True)
              (key): Linear(in_features=768, out_features=768, bias=True)
              (value): Linear(in_features=768, out_features=768, bias=True)
              (dropout): Dropout(p=0.1, inplace=False)
            )
            (output): BertSelfOutput(
              (dense): Linear(in_features=768, out_features=768, bias=True)
              (LayerNorm): LayerNorm((768,), eps=1e-12, elementwise_affine=True)
              (dropout): Dropout(p=0.1, inplace=False)
            )
          )
          (intermediate): BertIntermediate(
            (dense): Linear(in_features=768, out_features=3072, bias=True)
            (intermediate_act_fn): GELUActivation()
          )
          (output): BertOutput(
            (dense): Linear(in_features=3072, out_features=768, bias=True)
            (LayerNorm): LayerNorm((768,), eps=1e-12, elementwise_affine=True)
            (dropout): Dropout(p=0.1, inplace=False)
          )
        )
      )
    )
    (pooler): BertPooler(
      (dense): Linear(in_features=768, out_features=768, bias=True)
      (activation): Tanh()
    )
  )
  (droupout): Dropout(p=0.1, inplace=False)
  (fc): Linear(in_features=768, out_features=22, bias=True)
)
start = inf, end=-1
label = ['DATE', 510, 516]
label[1]=510, label[2]=516, sample_offsets=tensor([[  0,   0],
        [  0,   1],
        [  1,   4],
        [  5,   7],
        [  8,  13],
        [ 14,  16],
        [ 17,  20],
        [ 21,  25],
        [ 26,  29],
        [ 30,  36],
        [ 37,  44],
        [ 45,  47],
        [ 48,  51],
        [ 52,  57],
…
